notebooks/SavedModels/layers1.pt (torch, 787595 bytes, 7 tensors)

weight f4 [96, 3, 5, 5]
000000 65 00 07 3e 51 82 0c 3e 1b c6 0c 3e f8 60 09 3e
       0.13183744 0.13721587 0.13747446 0.13415897
000010 7d a2 02 3e 7f 97 10 3e 45 1f 17 3e ae 56 17 3e
       0.12757297 0.14120291 0.14758022 0.1477916
000020 fd e2 13 3e 66 b0 0c 3e d6 88 12 3e b7 35 19 3e
       0.14442058 0.13739166 0.14310011 0.14961897
000030 4d b2 19 3e dc 84 16 3e c8 da 0e 3e 2a 1a 0e 3e
       0.15009423 0.1469912 0.13950646 0.13877168
000040 89 c3 15 3e 87 1b 17 3e 49 7a 13 3e d8 18 0b 3e
       0.14625372 0.14756595 0.14402117 0.13583696
000050 2b 96 05 3e e1 8f 0d 3e cf 81 0f 3e 5c 8d 0b 3e
       0.13045566 0.13824417 0.14014362 0.13628143
000060 56 6f 03 3e 6d 4f 68 bc 46 8d 5c bc 12 b8 69 bc
       0.1283544 -0.014179093 -0.013461417 -0.014265077
000070 29 de 80 bc 1b e1 8e bc 86 96 3b bc 3d 98 24 bc
       -0.015730934 -0.017441323 -0.011449462 -0.010046062
000080 78 9e 32 bc a9 75 4e bc ed 17 6b bc dc af 39 bc
       -0.01090204 -0.012601295 -0.014348966 -0.011333432
000090 a8 5c 21 bc fb 08 2d bc 96 38 48 bc f8 23 6a bc
       -0.009848751 -0.010561223 -0.012220522 -0.014290802
0000a0 cb 95 64 bc 2e 2b 3d bc 6a fb 3c bc 1e 82 5e bc
       -0.013951729 -0.011545939 -0.011534551 -0.013580827
0000b0 e0 22 85 bc ac cc 87 bc 91 60 60 bc 71 45 57 bc
       -0.016251981 -0.016577087 -0.013694898 -0.013139115
0000c0 ee 9c 7c bc 0f 1c 95 bc 34 41 0d be 55 f6 0f be
       -0.015418274 -0.018201856 -0.13794404 -0.14058812
0000d0 aa fc 10 be 62 a0 10 be 6b b9 0d be 08 30 10 be
       -0.14158884 -0.14123681 -0.13840263 -0.14080822
0000e0 66 c9 12 be 06 f5 13 be 1c f3 13 be ef da 10 be
       -0.1433464 -0.14448938 -0.14448208 -0.14146017
0000f0 57 13 11 be 36 c0 13 be 81 0c 15 be 5c 25 15 be
       -0.14167534 -0.14428791 -0.14555551 -0.14565033
000100 38 52 12 be 61 b2 10 be 7a f3 12 be 16 ea 13 be
       -0.14289176 -0.14130546 -0.14350691 -0.14444765
000110 09 55 14 be c0 d1 11 be 55 92 0d be fb 35 0f be
       -0.14485563 -0.1424017 -0.13825352 -0.13985436
000120 cf df 0f be dd 81 10 be f6 41 0e be be 13 b6 3c
       -0.1405022 -0.14112039 -0.1389235 0.02222621
000130 9c 3f fb 3c 4c 33 db 3d 0c a6 6f 3e 1d b7 93 3e
       0.03066998 0.107031435 0.23403186 0.28850642
000140 da cf 9a 3c ff 7a 1f 3c 94 b9 86 3d 97 fa 4b 3e
       0.01889794 0.009733914 0.06578365 0.19919811
000150 71 f1 8f 3e dc 58 f5 3c fd 41 4e 3c 0c 87 f2 3c
       0.28113893 0.029949598 0.012588975 0.029605411
000160 7d db f5 3d 90 d5 55 3e e9 ce 20 3d 9f c7 8e 3c
       0.12004755 0.20882249 0.039259825 0.017429171
000170 a7 30 b2 3a 49 3d 13 3d 99 a4 d9 3d c7 d3 19 3d
       0.0013594822 0.035947118 0.10627098 0.037555482
000180 71 82 8f 3c 86 4c 1e bc de fd 16 bc 7d 6f 09 3d
       0.017518254 -0.009661799 -0.0092158 0.03355359
000190 9d 66 81 bd d2 e6 6b bd e3 43 d4 3c c2 61 2f 3e
       -0.063184 -0.057593174 0.025911277 0.17127135
0001a0 aa 06 75 3e 13 fd 91 bd 45 85 ae bd 64 96 ce bc
       0.23928323 -0.07128348 -0.08521513 -0.025218196
0001b0 04 d3 00 3e 92 c0 66 3e 9f 9b 7e bd 16 20 ae bd
       0.12580496 0.22534397 -0.06216013 -0.08502214
0001c0 ca c9 8a bd 54 31 05 3d be 98 0c 3e f9 20 58 bd
       -0.067767695 0.032517746 0.13730142 -0.05276582
0001d0 24 3f a3 bd de 27 c7 bd 81 b2 76 bd ab ed a9 3c
       -0.079710275 -0.09724401 -0.06022883 0.020743212
0001e0 f9 00 4e bd ee 3b 98 bd 48 39 d2 bd 60 fa d1 bd
       -0.050293896 -0.07433306 -0.10264832 -0.10252833
0001f0 96 8a 5d bd cc dd 00 be 18 80 f5 bd d5 e6 24 bd
       -0.054087244 -0.12584609 -0.119873226 -0.0402592
000200 98 9f cc 3d 9f e3 2d 3e 50 83 0b be 47 b6 17 be
       0.099913776 0.16981362 -0.1362431 -0.14815627
000210 70 71 bb bd c3 a4 57 3d eb 64 1c 3e a8 df 05 be
       -0.09152496 0.052647363 0.15272872 -0.130736
000220 9b eb 19 be 86 72 07 be 17 d7 1a bd 2e e9 85 3d
       -0.15031283 -0.13227281 -0.037802782 0.06538616
000230 bb a6 fc bd 83 7c 15 be 03 81 21 be 7e 70 fa bd
       -0.12336489 -0.14598279 -0.1577187 -0.122284874
000240 17 c5 36 bd 7a 6a f5 bd 77 75 0f be 8b c8 24 be
       -0.044621553 -0.119831994 -0.14009653 -0.16092126
000250 89 b3 21 be ea fa e4 bd 0d 6e b4 bd 48 cd bb bd
       -0.15791143 -0.111806706 -0.08810053 -0.09170014
000260 f0 1a ba bd c7 24 b7 bd 6b 91 ae bd bc 32 c8 bd
       -0.09087169 -0.089425616 -0.0852383 -0.09775302
000270 ea 5c d1 bd 63 35 d1 bd 0e 0d d3 bd f3 2d cd bd
       -0.102228 -0.10215261 -0.10305224 -0.1001853
000280 8c 81 c3 bd f1 e4 e2 bd 8d 46 ef bd a1 d8 f1 bd
       -0.095461935 -0.11078823 -0.11683378 -0.11808897
000290 6d ed e0 bd ed 2b 20 3d 0d d6 ef 3c 38 a6 88 3c
       -0.109827854 0.03910439 0.029276872 0.016680822
0002a0 fa f4 e2 3b db 3f 68 3b dd fc 51 3e 7a 33 5d 3e
       0.006926176 0.0035438451 0.20506616 0.21601668
0002b0 5f 37 59 3e 02 94 4e 3e 93 3e 39 3e 97 61 96 bd
       0.21212529 0.20173648 0.18090276 -0.073428325
0002c0 36 07 9d bd f0 16 9b bd f9 d0 98 bd 27 1f 91 bd
       -0.07667391 -0.07572734 -0.07461733 -0.0708602
0002d0 66 3a aa bd 0a d1 b2 bd af 66 b2 bd 68 ba b4 bd
       -0.0831192 -0.08731277 -0.087109916 -0.08824617
0002e0 13 d0 af bd 97 f8 aa bd b4 28 ca bd c4 8e d6 bd
       -0.08584609 -0.08348196 -0.09871045 -0.10476449
0002f0 bb 73 d9 bd 18 f7 c8 bd b6 1e 48 3d 2a 35 20 3d
       -0.10617777 -0.098127544 0.048857413 0.0391132
000300 96 0f d7 3c a0 25 85 3c 06 65 4e 3c fe 56 5b 3e
       0.02625255 0.016253293 0.012597328 0.21419904
000310 05 25 67 3e df e8 62 3e 1b c1 57 3e 27 88 41 3e
       0.22572716 0.22159146 0.21069758 0.18899594
000320 fb 97 49 bd 4c 2d 55 bd a5 88 51 bd 53 ed 4d bd
       -0.049217205 -0.05204515 -0.051155705 -0.050275158
000330 c3 08 40 bd 68 4b 6c bd 61 ae 7a bd 8d fd 78 bd
       -0.046883356 -0.0576891 -0.061201457 -0.06078868
000340 17 36 7d bd 16 15 74 bd ae f5 6f bd 57 f5 93 bd
       -0.061819162 -0.05959042 -0.058583908 -0.07224529
000350 42 a6 9e bd 28 46 a1 bd 04 de 91 bd 99 ea 80 3d
       -0.07746555 -0.07874709 -0.07122424 0.06294746
000360 b8 59 5f 3d df b6 2f 3d 03 98 09 3d 15 55 f7 3c
       0.05452892 0.04289901 0.033592235 0.030191937
000370 33 69 5b 3e 6a c2 66 3e fa c1 62 3e a9 38 58 3e
       0.21426849 0.225351 0.22144309 0.21115364
000380 a6 4d 43 3e 65 75 dd 3d 57 98 ed 3d bf da e3 3d
       0.1907259 0.10813407 0.11601322 0.11125707
000390 7a 1a f2 3d 7d 0d 00 3e cb 84 9d bd 13 8d b9 bd
       0.11821456 0.12505145 -0.07691344 -0.09060111
0003a0 26 cd 6a bd c2 4a 99 3c 17 b4 97 3d a7 ea 54 be
       -0.05732455 0.018712405 0.07407396 -0.20792638
0003b0 30 4c 5c be 58 b0 0a be e0 2d f2 bb 7f 79 88 3d
       -0.21513438 -0.13543832 -0.0073907226 0.066637985
0003c0 29 19 3d be 01 6d 17 be 8e 24 c0 bc 2d b5 be 3d
       -0.18466629 -0.14787675 -0.02345493 0.093119
0003d0 e0 74 04 3e 00 7c 84 bd e8 0a ca 3b 8f 02 e2 3d
       0.1293521 -0.064689636 0.006165851 0.11035644
0003e0 6c 60 23 3e e1 06 1c 3e 55 d4 cc 3d 86 90 dd 3d
       0.15954751 0.15236999 0.100014366 0.10818581
0003f0 fd 3b d3 3d 71 9a e2 3d fc 0a f3 3d dc 86 b7 bd
       0.10314176 0.110646136 0.118673295 -0.08961269

running_mean f4 [3]
000000 dd 22 f8 3e 8e b1 f3 3e 1b 65 e0 3e
       0.484641 0.475964 0.43827137

running_var f4 [3]
000000 07 99 74 3d 31 85 6b 3d 92 c4 89 3d
       0.05971625 0.057500068 0.06726946

running_mean f4 [96]
000000 9b 4b 5a 3f 01 a3 89 3f f6 fa 7f 3f 03 39 6f 3f
       0.85271615 1.075287 0.9999231 0.9344637
000010 c2 94 31 3f c5 eb 21 3f 73 23 88 3f dd f3 69 3f
       0.6936761 0.6325038 1.0635818 0.9138773
000020 70 4c 42 3f 45 fc 94 3f 16 ef 98 3f 24 64 80 3f
       0.75897884 1.1639487 1.1947963 1.003056
000030 88 8c 4d 3f 30 e8 60 3f 4e 59 47 40 fb e2 80 3f
       0.8029256 0.8785429 3.1148257 1.0069269
000040 b6 64 71 3f f2 f6 97 3f cd 8c 8c 3f a4 36 7a 3f
       0.942943 1.1872237 1.0980469 0.97739625
000050 9d 8d 46 40 9c 84 97 3f b2 56 84 3f 31 55 4c 40
       3.1023934 1.1837344 1.0338957 3.1926997
000060 24 3a 53 3f b7 61 54 3f 56 60 8a 3f a5 11 82 3f
       0.8251059 0.829616 1.0810649 1.0161635
000070 10 46 49 3f 3e 0f 93 3f 83 33 5c 3f 18 f9 b6 3e
       0.7862253 1.1489027 0.860161 0.35736918
000080 c0 8d 38 40 1c 67 41 3f 22 f3 39 3f d5 da 35 40
       2.8836517 0.7554796 0.72636616 2.8414814
000090 80 56 9f 3e 24 25 42 3f 1b db 36 40 33 4b 15 3f
       0.31120682 0.7583792 2.8571231 0.5831787
0000a0 c0 d4 44 3f 3e 8c 47 3f 99 1a 87 3f e0 60 83 3f
       0.7688713 0.7794837 1.0554992 1.0263939
0000b0 81 fa 7c 3f 61 7b 91 3f 8f 7e bd 3e 89 ab 8e 3f
       0.9881974 1.1365777 0.3701062 1.1146098
0000c0 92 5f 7f 3f e2 de 35 40 01 70 83 3f 57 7d 83 3f
       0.99755204 2.8417287 1.0268556 1.0272626
0000d0 09 eb 83 3f 49 a4 40 3f e1 04 8e 3f 86 3f 83 3f
       1.0306102 0.7525068 1.1095239 1.0253761
0000e0 02 26 a2 3f 0b 8d 8c 3f 16 9b 41 3f 6e ef 70 3f
       1.2667849 1.0980543 0.7562727 0.9411534
0000f0 93 6c 86 3f c4 1d 6b 3f b7 06 6a 3f 08 d4 67 3f
       1.0501884 0.91842294 0.91416496 0.9055791
000100 26 ea 7c 3f 1e 3d 2d 3f bc 58 86 3f 1a 35 86 3f
       0.9879478 0.6767138 1.049583 1.0484955
000110 bb 48 4a 40 63 28 80 3f 0d 42 42 40 d1 e4 4e 3f
       3.160689 1.0012325 3.0352814 0.80817896
000120 8e dc 41 3f ee fa 6c 3f 2a f9 9d 3f 0f 59 5a 3f
       0.75727165 0.9257039 1.2341664 0.8529214
000130 9a b8 90 3f 4f d9 65 40 78 3e 9d 3f 2b c5 8a 3f
       1.1306336 3.5913885 1.2284689 1.0841421
000140 d5 6e 8d 3f 15 ac 60 3f 83 e6 8b 3f 8e eb 7f 3f
       1.1049448 0.87762576 1.0929722 0.999688
000150 ee 01 99 3f 0c 03 49 40 7e 66 70 3f 5c e5 84 3f
       1.1953714 3.140811 0.9390639 1.0382495
000160 54 61 87 3f ce 95 83 3f 97 37 4b 3f f0 e0 68 3f
       1.0576577 1.0280092 0.793817 0.9096823
000170 f7 93 35 40 29 be 43 3f dd 0a 50 3f d1 bf 8d 3f
       2.837156 0.76462036 0.81266576 1.1074163

running_var f4 [96]
000000 2e a6 e9 3f c4 8d f3 3f 87 f0 13 40 27 3b ce 3f
       1.8253839 1.9027638 2.3115556 1.6111802
000010 c2 8b 90 3f 09 be 52 3f 5e 2d 1b 40 de 3b cf 3f
       1.1292651 0.8232122 2.424644 1.6190145
000020 2b b1 72 3f 53 ad 10 40 87 11 36 40 6e ef 12 40
       0.94801587 2.2605789 2.8448198 2.2958636
000030 c8 d8 a6 3f 52 51 a5 3f b3 4f 88 41 d7 22 ef 3f
       1.3034906 1.2915442 17.038916 1.8682507
000040 f3 7f 03 40 1f 0a 2b 40 10 4e 2f 40 f8 e0 f6 3f
       2.0546844 2.6724927 2.7391396 1.9287405
000050 56 09 8c 41 aa 2d 1e 40 45 91 fc 3f b9 bc 8b 41
       17.504559 2.471537 1.9731833 17.46715
000060 d7 6c 94 3f be 4a 9b 3f e1 99 09 40 97 25 1b 40
       1.1595715 1.2132185 2.150017 2.4241693
000070 1d 87 9e 3f 3a 3a 0c 40 37 bf bd 3f 03 0e f0 3e
       1.2384983 2.1910539 1.4823979 0.4688569
000080 eb 8a 4a 41 f6 99 87 3f 98 86 c8 3f c5 98 4a 41
       12.6589155 1.059386 1.5666075 12.662297
000090 3f 8b 82 3e b3 cf 7a 3f 41 68 4a 41 50 f7 6b 3f
       0.2549686 0.97973174 12.650453 0.92174244
0000a0 4a 3c a1 3f a1 aa 92 3f dd 11 0c 40 57 19 1a 40
       1.2596524 1.1458322 2.1885903 2.4077966
0000b0 eb 75 01 40 c1 2d 21 40 fa c0 96 3e 46 ea 02 40
       2.0228221 2.5184176 0.29444104 2.045549
0000c0 97 6b df 3f 7b 63 4a 41 50 14 ec 3f 59 7e 07 40
       1.7454709 12.649287 1.8443699 2.1170866
0000d0 95 43 e7 3f 57 3e 8f 3f ec 80 fb 3f d8 c7 f4 3f
       1.8067499 1.11909 1.9648719 1.9123487
0000e0 0f 74 53 40 a7 41 39 40 03 df 96 3f 38 e8 f0 3f
       3.3039587 2.894632 1.1786808 1.8820868
0000f0 14 24 1c 40 c3 97 bf 3f 69 35 d1 3f e8 ff b5 3f
       2.439702 1.4968189 1.6344424 1.4218721
000100 ae 38 13 40 28 67 6b 3f 27 b8 15 40 f4 3e e6 3f
       2.3003345 0.9195428 2.3393648 1.7987962
000110 26 6a 8a 41 62 a0 13 40 90 d8 7c 41 b9 ed a3 3f
       17.30183 2.306664 15.802872 1.2806922
000120 9e 40 b2 3f 65 b8 cd 3f 09 e8 3f 40 91 e0 a0 3f
       1.392597 1.6071898 2.9985373 1.2568532
000130 a1 f9 0a 40 9e 11 b8 41 e7 d2 47 40 28 8d 12 40
       2.1714861 23.008602 3.1222475 2.2898655
000140 0e d6 14 40 34 59 f9 3f 16 97 0e 40 95 3a 09 40
       2.3255649 1.9480348 2.2279716 2.1442006
000150 44 17 2f 40 09 ee 7d 41 82 a6 06 40 71 c5 fb 3f
       2.735795 15.870614 2.1039128 1.9669629
000160 26 23 29 40 ac c4 ea 3f 58 4d a4 3f ab b2 ce 3f
       2.6427703 1.834127 1.2836103 1.6148275
000170 df 17 4b 41 60 86 80 3f a4 47 92 3f de 94 1a 40
       12.693328 1.0041008 1.1428113 2.4153361

weight f4 [10, 18816]
000000 87 01 06 bf ec 06 3a 3e 7d 30 2d 3f 67 43 95 bd
       -0.5234608 0.18166703 0.6765211 -0.072882466
000010 75 df fe 3e 01 55 e6 3e bd 24 26 bf 24 eb 97 be
       0.4977986 0.44986728 -0.6489981 -0.29671586
000020 a9 43 ae 3e 4b 8b 54 3e 88 b9 1b 3f dc 4b e1 3d
       0.34035996 0.20756261 0.60829973 0.11000797
000030 77 8c 07 bf c9 49 13 bf 0d 62 3a bd d8 b9 00 bf
       -0.5294871 -0.5753446 -0.045503665 -0.50283575
000040 37 68 6d bd 7d 2e cd be ad 9e 4b be 6b f5 db be
       -0.057960715 -0.4007453 -0.19884749 -0.42960677
000050 86 b5 ef be c7 9f 29 bf 97 2b 8f be ab e0 15 bf
       -0.4681818 -0.66259426 -0.27962944 -0.5854594
000060 29 cc 68 3e 64 fd 3c 3e 59 47 d6 be 6b 74 a2 bf
       0.22734131 0.18456036 -0.4185131 -1.2691778
000070 c0 d7 5a 3e 7f 60 81 bf 13 95 10 bf 3d 21 56 3f
       0.21371365 -1.0107573 -0.5647747 0.8364447
000080 72 e6 42 be ea 29 71 3f 14 4d 0b bf b9 76 8b 3a
       -0.1903322 0.9420458 -0.54414487 0.001064024
000090 e8 aa c7 3e 77 20 03 bd 4f fb a9 3d 7e 2f c9 3e
       0.3899758 -0.032013383 0.082998864 0.39294046
0000a0 81 03 6c be cd 0a f4 bd 56 cd e3 3e d6 60 37 be
       -0.23048212 -0.119161226 0.44492596 -0.17908034
0000b0 3f 29 2a 3f 7a de f2 bd 18 ea fe be a0 c6 1f 3d
       0.66469187 -0.1185884 -0.49787974 0.039007783
0000c0 59 34 84 3d 4e f5 47 bd cb 3e 32 3e ae 7b fc bc
       0.06455297 -0.048817925 0.17406766 -0.030820694
0000d0 0e 2e e1 be 68 1e bc bb 2a d1 e8 bd 28 14 41 3f
       -0.4398045 -0.0057409294 -0.1136802 0.7542138
0000e0 e8 70 79 3d 1a e8 1d bf 36 ef d0 3e 72 cc 9c 3e
       0.06089869 -0.61682284 0.40807503 0.3062473
0000f0 18 bc 3b 3e 93 99 92 3e ba 39 78 3e 36 fc e3 bc
       0.18333471 0.28632793 0.24240771 -0.027830224
000100 39 d0 de bd 76 da 98 3e 59 e2 64 3e 44 28 10 3d
       -0.10879559 0.29854172 0.2235197 0.03519465
000110 ba 60 58 bc df 32 63 be e8 ff ea 3e 66 89 15 3e
       -0.013206655 -0.22187375 0.45898366 0.14603195
000120 80 e9 2d 3e 59 fd 25 bf 4c 04 a3 3e 90 a8 ab 3e
       0.16983604 -0.648397 0.31839216 0.3352704
000130 01 0d 0e be 3a ad d7 3e ec 68 e2 3d 08 fe 3b 3f
       -0.13872148 0.4212435 0.110551685 0.73434496
000140 a8 0d 0a 3f 33 e7 92 3e 89 f1 34 3e 03 ca b6 3e
       0.5392709 0.28692016 0.17670263 0.35700998
000150 5d 35 b5 3d c0 4c 99 bd 43 99 bb 3e 26 3e 7a be
       0.08848069 -0.07485342 0.36640367 -0.2443777
000160 ab 88 0b 3e a0 45 a8 be 65 db 9b 3e e4 d5 34 3f
       0.13626353 -0.3286562 0.30440822 0.7063887
000170 ae 7a b2 be 2a 28 05 3e cd 70 14 3f 47 3b 45 be
       -0.34859222 0.13003603 0.5798462 -0.19260894
000180 f7 bd 80 be bf 4c 16 3f 54 58 7a 3e 38 37 e8 3e
       -0.25144932 0.58710855 0.24447757 0.4535463
000190 e6 7c 90 3e 04 55 9e 3f 60 cf 81 bd 05 3d 46 3e
       0.2822029 1.2369695 -0.06338382 0.19359215
0001a0 f4 99 ef 3d ad cb d9 3b 0b 00 84 3f 1f 1d d9 be
       0.11699286 0.0066465945 1.0312513 -0.4240503
0001b0 31 b4 5e 3d 60 77 c7 be a9 dd 48 3f de 1c 01 bf
       0.054371063 -0.38958263 0.78463227 -0.5043467
0001c0 57 71 c5 3d e7 f2 6a bf 78 90 69 3e 51 78 23 be
       0.096407585 -0.9177689 0.22809017 -0.15963866
0001d0 3d 61 36 3e c3 36 22 be 74 a0 0d 3f fb ca b8 3e
       0.17810531 -0.15841202 0.5532296 0.36092362
0001e0 c6 43 42 3e 20 6c bb 3e c4 5c 46 3f eb 6a dc 3e
       0.18971166 0.3660593 0.774853 0.43050322
0001f0 bf 5c 00 3e 7d c2 03 3e 65 16 8a be 4a e9 19 be
       0.1253538 0.1286716 -0.2697021 -0.15030399
000200 7e 9d c6 bd 97 5a 06 bf 40 fa ad be 12 a9 5f 3f
       -0.09698008 -0.5248198 -0.33979988 0.87367356
000210 a3 d1 53 3e 82 69 c6 3e 66 fe b3 3e ca db 66 be
       0.20685439 0.3875237 0.35155028 -0.2254478
000220 07 af c4 3d 22 ea e8 be 7e ad e8 be d7 e0 0b 3f
       0.09603696 -0.4549113 -0.45444864 0.54639953
000230 e7 44 24 bf 56 e5 3e 3f 55 e4 01 bf 60 15 70 be
       -0.64167637 0.7456869 -0.5073903 -0.23445654
000240 3f 33 41 bf 4a 67 6b bf 82 47 d2 3e d0 18 47 bd
       -0.7546882 -0.9195448 0.4107018 -0.048607647
000250 0b 4a 0c 3f 5b 64 89 bd d9 ce 67 be 7d 06 84 be
       0.5480048 -0.067085944 -0.226375 -0.257862
000260 9e 9d a4 be 93 ed 1f bf bc d6 bb be 50 5f 30 bf
       -0.32151502 -0.62471884 -0.36687267 -0.68895435
000270 9f ef 8a bd a4 72 49 bf bc db 81 bd 5c 83 0f bf
       -0.06783985 -0.7869055 -0.06340739 -0.56059813
000280 c8 2f c4 bd 9e 44 30 bf c1 98 b1 be e0 41 81 be
       -0.09579426 -0.688547 -0.34686854 -0.2524557
000290 dc fe 12 be 31 1a b8 be 58 4a 10 bf 6f ff 74 bf
       -0.14355034 -0.35957482 -0.5636344 -0.9570226
0002a0 ba e4 a3 bd 79 d5 75 be e8 a2 fc be e0 82 95 3e
       -0.080026105 -0.24007215 -0.49343038 0.29201412
0002b0 28 cc 48 be b3 45 96 be f0 0a a2 3e bd 75 57 bf
       -0.1960913 -0.2935005 0.3164897 -0.8416403
0002c0 41 82 24 bf 3b a4 c7 be ca cc c0 bf 71 73 36 bf
       -0.6426125 -0.38992485 -1.5062497 -0.712699
0002d0 71 dd 94 be 45 a3 38 3e 93 58 8f be 1d c1 a1 3c
       -0.29075196 0.18031032 -0.27997264 0.019745404
0002e0 62 8c b0 bd 6c 10 2c 3f 96 b6 5e 3e 04 08 57 be
       -0.08620526 0.6721256 0.21749339 -0.20999151
0002f0 00 c0 58 3f e3 a9 b0 bc 28 cf 04 3e a1 ff a0 3e
       0.8466797 -0.021565383 0.12969649 0.3144503
000300 69 9c 19 bf 6d 37 49 3e f0 22 ea be 6f fb 58 be
       -0.6000429 0.1965005 -0.4572978 -0.21189664
000310 e0 7b 26 bd 12 b5 c9 3d 15 fc 0b 3f c2 e5 f9 3c
       -0.04064548 0.098489895 0.5468152 0.030505065
000320 fa f4 c1 3e d7 cf 35 3f 44 cd 9d 3e 80 1f a9 3d
       0.37882215 0.71020263 0.30820668 0.08257961
000330 dc a5 5d 3e 74 0a d0 be b5 8d 1b 3e 43 b9 42 bf
       0.21645302 -0.40632975 0.15190776 -0.76063937
000340 27 00 3f bf c2 0d 11 bf 60 e6 9d be ee 93 ed 3e
       -0.7460961 -0.5666162 -0.30839825 0.46401924
000350 f8 25 33 3e 02 7e 50 3d 70 81 c3 3e ec 5d e4 be
       0.17494953 0.05090142 0.3818469 -0.44602907
000360 e7 87 61 3f 49 8c b9 3e c4 f0 ca 3e ca d8 1b 3f
       0.88097996 0.36239842 0.39636815 0.6087767
000370 00 87 84 3d c4 b0 f9 be 4b 42 1b be 24 69 2d bf
       0.06471062 -0.48767674 -0.15162008 -0.67738557
000380 01 8c 6f be 76 61 e8 3e b4 c9 9e 3e 8f d0 70 3f
       -0.23393251 0.45386857 0.31013262 0.94068235
000390 96 39 ae 3c 71 09 91 3e 2f 72 e2 be bc 3d 7e bf
       0.021267693 0.28327516 -0.4422774 -0.9931295
0003a0 7c 3e 34 3c e9 2d 1c be 6a 7c 01 be 10 2b 1b 3d
       0.011001226 -0.15251888 -0.12645116 0.037882864
0003b0 ba ce 86 be 39 6c 4b bc 2b 66 ec bd e9 db 20 be
       -0.26329595 -0.012415939 -0.115429245 -0.15708889
0003c0 75 18 f0 be 39 f4 10 3f 8e 9e 7d be 37 65 06 bf
       -0.4689366 0.56622654 -0.24767515 -0.5249819
0003d0 3f 3f 0f 3f a8 3e 34 3f 4b 09 e0 3d d6 dc 42 be
       0.5595588 0.70408106 0.109392725 -0.19029555
0003e0 8b 5e 51 be 08 fc d3 bd ef 59 85 bf 8b d5 63 bf
       -0.20446222 -0.103508055 -1.041807 -0.88997716
0003f0 cf e8 ce be a1 28 4f 3d a8 07 90 bd 56 45 53 3f
       -0.40411994 0.050575856 -0.0703271 0.82527673

bias f4 [10]
000000 18 1c 3e c1 0c 2b 0c c2 c2 2d 08 42 fb 4a 4f 42
       -11.881859 -35.042038 34.044685 51.823223
000010 eb 36 02 42 17 8c 1c 41 4b c0 3e c0 07 44 c0 c0
       32.55363 9.784202 -2.9804866 -6.008304
000020 4b 69 53 c2 bb ae 9b c1
       -52.852825 -19.460318
