notebooks/SavedModels/layers1.pt (torch, 787467 bytes, 7 tensors)

weight f4 [96, 3, 5, 5]
000000 45 65 aa 3d f9 b6 b3 3b 46 31 fb bd 91 28 4a be
       0.08320097 0.0054844585 -0.122652575 -0.19742037
000010 0f 7b 4d be aa b5 ff 3d c8 14 93 3d dc 42 83 bd
       -0.20066474 0.124858215 0.07181698 -0.06409237
000020 58 be 33 be 54 ba 4c be 9e 46 04 3e 4a 9b e7 3d
       -0.17553079 -0.19992954 0.12917563 0.11308916
000030 d0 d1 12 3d 9a 6a 8f bd 61 cb 04 be 83 95 f8 3d
       0.035844624 -0.070027545 -0.12968208 0.12137892
000040 5b 2e 01 3e f3 7d de 3d 56 03 77 3d 6e 55 c2 bb
       0.1261534 0.10863867 0.060305916 -0.005930594
000050 0f 6c e3 3d 3d 7d fb 3d 99 c5 02 3e 20 e2 f2 3d
       0.11104595 0.12279747 0.1277069 0.11859536
000060 0b 73 9f 3d a2 b5 96 3d ca e3 c0 bb 8c a3 0a be
       0.077856146 0.073588625 -0.0058865296 -0.1353895
000070 92 c0 56 be da 31 59 be 4e 55 ed 3d 04 99 7a 3d
       -0.20971897 -0.21210423 0.11588536 0.061181083
000080 9b 53 9c bd 62 45 40 be c5 9b 58 be 24 81 f6 3d
       -0.07633134 -0.18776467 -0.21153171 0.1203635
000090 e4 34 d3 3d 2e c5 c7 3c df 36 a8 bd 67 1e 11 be
       0.103128225 0.024386015 -0.08213591 -0.14171754
0000a0 dc 12 e5 3d 0a 04 ee 3d 47 69 c8 3d e9 45 48 3d
       0.11185238 0.11621864 0.09785705 0.048894797
0000b0 5e f5 90 bc 17 4e ce 3d 89 47 e6 3d 7f 00 f0 3d
       -0.017695125 0.10073488 0.11244113 0.117188446
0000c0 df 97 dc 3d f2 4c 88 3d bc c3 6d 3d fd ba 61 bc
       0.107711546 0.06655301 0.058047995 -0.013777492
0000d0 40 11 03 be 33 45 43 be ed 21 44 be 6f c4 c5 3d
       -0.12799549 -0.19069366 -0.19153567 0.09656607
0000e0 9f 7f 3f 3d 15 0a 9c bd e5 93 31 be f8 d5 45 be
       0.04675257 -0.076191105 -0.17341574 -0.19319904
0000f0 a3 e4 cd 3d e0 93 ad 3d 13 84 65 3c 2a 15 a6 bd
       0.100533746 0.084754705 0.01400854 -0.081095055
000100 6d 0b 09 be f5 f9 bd 3d b7 d0 c5 3d 2f 13 a4 3d
       -0.13383265 0.09276191 0.0965895 0.080114715
000110 73 2c 13 3d 98 ba c5 bc 93 d2 a9 3d b8 27 bf 3d
       0.035931062 -0.024136826 0.08292117 0.093337476
000120 11 f0 c7 3d 65 6d b6 3d 5e a1 54 3d 09 5e 6b bd
       0.09762586 0.08907584 0.051911704 -0.057462726
000130 d4 30 e5 bd 0b 40 98 3d 09 76 11 3e a3 27 6d 3d
       -0.11190954 0.0743409 0.14205183 0.05789913
000140 f1 16 d9 3d ad 39 40 3e 8e cf e0 3d 50 3f 8a bd
       0.10600079 0.18772002 0.10977088 -0.06750357
000150 19 1d 05 be ec fc 7e 3d a6 18 e8 bc 93 d1 17 be
       -0.12999381 0.062252924 -0.028332066 -0.1482604
000160 88 22 07 be 97 35 1a 3e 2a 22 50 be 4e 3c 5e bc
       -0.13196766 0.15059505 -0.20325533 -0.013564182
000170 68 70 e2 3c 5c 89 6a 3e 62 51 39 3e fd d7 b9 3d
       0.02764149 0.22903961 0.18097451 0.090743996
000180 90 ab 12 3e 89 6a d9 3d 42 56 f4 bd 6b de a7 bd
       0.14323258 0.10616023 -0.11930515 -0.0819672
000190 3a a8 25 bd ef c6 dc bd 5b 14 90 3d ee 93 25 3e
       -0.040443636 -0.10780131 0.070351325 0.16169712
0001a0 ad 2f ed bb b6 2d 02 3e 29 95 39 3e fe 82 eb 3d
       -0.0072383494 0.1271275 0.18123306 0.11499594
0001b0 48 f2 e0 bd 84 21 26 be 42 d7 40 3d f9 44 b3 bd
       -0.109837115 -0.16223723 0.047080286 -0.0875339
0001c0 fe 02 44 be 4e e2 f0 bd 10 c0 07 3e 2f 35 4a be
       -0.19141766 -0.11761914 0.1325686 -0.1974685
0001d0 89 4d e7 bd 93 2e 88 3d d5 fe 0e 3e 7c 1a 05 3e
       -0.112940855 0.06649508 0.13964398 0.12998384
0001e0 b7 1c 40 3d fc 6b 15 3e 9e 8e f4 3c 37 b0 21 be
       0.046902385 0.14591974 0.029853161 -0.15789877
0001f0 21 74 30 be 2b f0 28 be 64 ca 0d be 97 3d 2c bd
       -0.172318 -0.16497867 -0.13846737 -0.042050924
000200 39 76 bd 3d ed b3 32 3d 3d dc ed 3d be 1d c5 3d
       0.09251065 0.04362862 0.11614273 0.096248135
000210 08 a1 87 3d 51 3f 59 bd 9f 3c 4f be d6 2f 69 3d
       0.06622511 -0.0530389 -0.20237969 0.056930386
000220 c6 5c 2a bd 21 d2 18 be 8e 61 61 bd f8 42 d2 3d
       -0.041592382 -0.14923908 -0.055024676 0.102666795
000230 06 7f 43 be 0d 8d 38 bd db 56 92 3d 9a 83 1f 3e
       -0.19091424 -0.04505639 0.071454726 0.15577546
000240 0a ce 39 3e 7f 05 64 3d 39 83 fe 3d 6f 31 a9 3d
       0.18145004 0.055669304 0.124273725 0.08261382
000250 b5 e7 04 be 16 95 39 be 3b 4a 30 3d b3 2d 3d 3d
       -0.12979014 -0.18123278 0.04303954 0.04618616
000260 c0 59 3a 3d 69 e2 28 3d f6 66 0e 3d 74 d2 5b bd
       0.04549575 0.041231547 0.03476616 -0.0536675
000270 c5 4e 81 bd a2 66 7f bd 23 8a 75 bd 96 9c 5d bd
       -0.06313852 -0.062353738 -0.05994619 -0.05410441
000280 28 45 f8 bc e6 20 51 bd fa c5 60 bd 63 ee 39 bd
       -0.030306414 -0.051056765 -0.054876305 -0.04539336
000290 7c 1a d4 bc aa 42 68 3e 12 39 73 3e 43 88 74 3e
       -0.025891535 0.2268168 0.2375224 0.23880105
0002a0 c5 f3 6f 3e 4b 13 60 3e e0 a4 8b bd 65 93 b5 bd
       0.23432834 0.2188236 -0.06818557 -0.08866004
0002b0 e8 b2 c9 bd 33 a3 c9 bd b8 bc aa bd 02 af b9 3c
       -0.09848577 -0.09845581 -0.083367765 0.022666458
0002c0 fa 0b d3 3c 96 07 ca 3c a8 4e a3 3c f9 c5 53 3c
       0.025762547 0.02466182 0.019934967 0.012925618
0002d0 e1 79 99 bd 1b a5 ae bd 84 c2 ae bd a3 4c aa bd
       -0.0749395 -0.08527585 -0.08533195 -0.083153985
0002e0 2f 94 9e bd a8 3b 50 bd 25 a1 94 bd b5 dc 9d bd
       -0.077431075 -0.050838143 -0.072572984 -0.07708112
0002f0 5d 35 8a bd 31 d9 41 bd 64 4b 59 3e 69 a3 64 3e
       -0.067484595 -0.04732627 0.21220165 0.22327961
000300 12 d1 65 3e aa 66 61 3e 13 64 51 3e 2e 84 b5 bd
       0.22443035 0.2201182 0.20448332 -0.08863102
000310 a0 47 df bd 3f 71 f3 bd fa a9 f2 bd c7 41 d2 bd
       -0.10902333 -0.11886834 -0.11848827 -0.10266452
000320 fb 30 45 3c 55 95 62 3c 3c 1b 50 3c dd 37 09 3c
       0.012035604 0.013829549 0.012701806 0.008375135
000330 06 1f 20 3b 5a de 98 bd fd 86 ad bd 9a e5 ac bd
       0.0024432554 -0.07464285 -0.084730126 -0.084422305
000340 f2 d6 a8 bd bb d1 9c bd 41 16 40 bd 0c d4 89 bd
       -0.082441226 -0.076571904 -0.046896223 -0.06729898
000350 b1 b3 91 bd be 5c 7f bd 95 97 31 bd c7 e3 4f 3e
       -0.071143515 -0.062344305 -0.04335745 0.20301734
000360 d5 76 5a 3e 10 65 5b 3e ca 05 57 3e 77 39 48 3e
       0.21334393 0.21425271 0.20998302 0.19553171
000370 e5 63 9a bd 7e d9 bf bd 38 bc d2 bd da c7 d2 bd
       -0.075385846 -0.09367655 -0.10289806 -0.10292025
000380 12 f7 b5 bd e4 0b 49 be 1c 91 14 be 40 1b 92 3c
       -0.088850155 -0.19633442 -0.1450848 0.01783526
000390 04 0f 04 3e c1 95 e8 3d 44 64 15 bc 5c 5e e5 3d
       0.12896353 0.11356688 -0.0091181435 0.11199638
0003a0 e3 32 24 3e 10 72 b1 3d ac 3f e5 bb f6 9a 75 3e
       0.16035037 0.08664334 -0.0069961157 0.23984894
0003b0 28 29 54 3e 4d 91 05 3d 95 64 cd bd ae 4e ec bd
       0.20718825 0.032609273 -0.1002895 -0.115384445
0003c0 ef aa da 3d 5b 06 09 bd 24 e5 e5 bd 7b b5 76 bd
       0.10677134 -0.033453327 -0.11225346 -0.060231667
0003d0 0e 5c 8c 3c 24 e3 97 bd 3b 8f df bd dd 9e 09 bc
       0.017133739 -0.074163705 -0.10915991 -0.008399692
0003e0 d9 a3 04 3e 2c f7 31 3e 64 61 60 be b0 73 2f be
       0.12953128 0.17379445 -0.21912152 -0.17133975
0003f0 95 21 0d bc 8f 82 d6 3d 4a f8 b9 3d 64 51 06 bd
       -0.008613964 0.10474121 0.090805605 -0.032792464

running_mean f4 [3]
000000 28 09 fa 3e 46 59 f6 3e dc dc e4 3e
       0.4883511 0.48114985 0.44699752

running_var f4 [3]
000000 28 a4 78 3d c3 29 74 3d 97 96 8c 3d
       0.060703427 0.05961014 0.0686466

running_mean f4 [96]
000000 87 d1 87 3f 84 34 d9 3e c1 e3 00 3f a0 09 0f 3f
       1.0610818 0.4242288 0.50347525 0.5587406
000010 e7 dc 77 3f e6 73 0d 3f e8 e3 3f 40 a4 49 23 3f
       0.96821445 0.5525497 2.9982853 0.6378424
000020 27 77 1f 3f 7e d0 10 3f 81 72 01 3f eb 6e 18 3f
       0.6229119 0.56568134 0.50565344 0.5954425
000030 e3 22 58 3f 82 54 79 3f 3a 30 25 3f 78 ac 27 3f
       0.8442823 0.97394574 0.6452671 0.6549754
000040 46 17 4b 3f 63 81 46 3f 5d 31 3c 40 b1 13 92 3f
       0.7933239 0.7754118 2.940513 1.1412259
000050 bb ed 46 3f b5 99 f9 3e 89 94 37 40 e0 89 8f 3f
       0.777065 0.48750082 2.8684409 1.1213951
000060 bb c8 37 3f af 5a 00 3f 16 8c 38 40 cd 74 37 40
       0.71790665 0.5013837 2.8835502 2.866504
000070 55 ae dd 3e a0 af 86 3f a0 7d 9f 3e a6 cb 3c 3f
       0.43297067 1.0522346 0.31150532 0.7374824
000080 ed 57 7c 3f 06 a8 8a 3f b5 89 e4 3e d0 c2 5b 40
       0.98571664 1.0832527 0.44636312 3.4337654
000090 8e 2d 40 3f 60 f2 74 3f b2 ed a9 3e 86 23 13 3f
       0.7506951 0.95682335 0.3318916 0.5747608
0000a0 96 c4 f1 3e e9 d7 41 3f 79 d2 12 3f b6 3a 3d 3f
       0.47220296 0.7572008 0.57352406 0.7391771
0000b0 29 7b 91 3f c6 ea 46 3f d8 2f 57 3f 76 88 cb 3e
       1.136571 0.77701986 0.8405738 0.3975255
0000c0 3c 76 02 3f 0e d0 3c 40 0f fd 4d 3f b9 c9 75 3f
       0.5096166 2.9501987 0.8046426 0.9601093
0000d0 b7 59 9c 3f 54 c3 22 3f 0b d6 3d 3f 70 8c 92 3f
       1.2214879 0.635793 0.7415473 1.1449108
0000e0 2e 7b 9a 3f 5b 74 4c 3f ef 99 4a 3f e9 1a 45 3f
       1.2068841 0.79865044 0.79141134 0.76994187
0000f0 17 a4 2f 3f 76 55 fd 3e 47 f2 37 40 7e d2 42 3f
       0.68609756 0.49479264 2.8741624 0.76102436
000100 cc ec 93 3f e6 b6 cf 3e 08 7e 48 3f 01 cb 2e 3f
       1.155664 0.40569228 0.7831731 0.6827851
000110 5e f0 03 3f 70 4d 12 3f 9f 63 2a 3f 99 94 40 40
       0.51538646 0.5714941 0.6655826 3.0090697
000120 1c 5a 30 3f 4f 89 11 3f dc 7c 3f 40 f6 02 4b 3f
       0.68887496 0.5685014 2.9919958 0.79301393
000130 fa 5a 1f 3f 69 34 4d 3f e2 36 87 3f f8 39 ca 3e
       0.62248194 0.80158097 1.0563624 0.39497352
000140 f6 59 15 3f d7 d5 97 3f ae 3a 88 3f 6b dd 39 40
       0.58340394 1.1862134 1.0642908 2.9041393
000150 ba e3 86 3f ae c5 47 3f f8 0e 02 3f 15 29 3e 40
       1.0538247 0.7803601 0.5080409 2.9712574
000160 67 5f 20 40 06 d5 88 3f a8 ea d0 3e bd a9 2d 3f
       2.505823 1.069001 0.4080403 0.67837125
000170 58 d2 33 3f f2 b3 4f 40 4d 6f fc 3e 46 b4 20 3f
       0.70242834 3.245358 0.49303666 0.62775075

running_var f4 [96]
000000 c9 fb 15 40 68 a3 4e 3e d9 0b dd 3e cc c7 d5 3e
       2.3434927 0.20179522 0.43173102 0.41753995
000010 78 ce 0d 40 54 ec c2 3e 6c 18 84 41 ab 1d 1a 3f
       2.2157269 0.3807093 16.511925 0.6020152
000020 19 a4 0c 3f a9 38 d5 3e d7 19 b1 3e 5a 6a 1e 3f
       0.54937893 0.4164479 0.34590027 0.6188103
000030 df 76 fb 3f e3 2f 0b 40 b0 ee 2b 3f 8a 6b 45 3f
       1.9645652 2.1747978 0.67161083 0.77117217
000040 07 74 8d 3f 02 de 82 3f 1e 93 87 41 79 5c 23 40
       1.1051034 1.0224001 16.946835 2.552519
000050 a8 9f 72 3f 75 16 c4 3e 02 2f 42 41 78 ec 0d 40
       0.94774866 0.38298383 12.1364765 2.217558
000060 22 de 46 3f 0d aa e1 3e 7e 52 43 41 8a be 40 41
       0.776827 0.4407505 12.20764 12.046518
000070 ad 55 59 3e 92 7e 13 40 b2 25 36 3e ec 36 73 3f
       0.21224089 2.3046002 0.17787817 0.9500568
000080 1e 18 0f 40 35 14 32 40 2b 9a 61 3e 0d ba b2 41
       2.235847 2.7824833 0.22031467 22.340845
000090 c5 1a 6b 3f 8d 54 00 40 c8 15 6f 3e 62 7d e3 3e
       0.9183772 2.0051606 0.23348153 0.44431597
0000a0 43 71 76 3e 4e 40 76 3f f1 8e 0a 3f d4 ec 5f 3f
       0.24066643 0.9619187 0.5412436 0.87470746
0000b0 db 55 1d 40 e3 16 81 3f 54 34 98 3f c3 5e 88 3e
       2.4583652 1.008511 1.1890969 0.26634797
0000c0 a2 e1 e0 3e a9 8f 81 41 d8 10 8a 3f 94 9c 08 40
       0.43922144 16.195147 1.078639 2.1345568
0000d0 28 ed 49 40 10 ce 20 3f f7 1d 63 3f f5 9a 1e 40
       3.1550999 0.62814426 0.887176 2.4782078
0000e0 f9 75 19 40 f6 35 83 3f 54 c5 86 3f 13 f4 82 3f
       2.3978255 1.0250843 1.052897 1.0230736
0000f0 cd 9e 5d 3f 99 35 94 3e 76 6d 40 41 30 c5 7a 3f
       0.86570436 0.28947142 12.026724 0.97957134
000100 2c f7 24 40 a2 fc 57 3e fb 3a 76 3f b3 0f 33 3f
       2.5775862 0.21092466 0.9618375 0.6994583
000110 d3 30 ea 3e c0 3f 79 3f 94 15 47 3f f7 64 83 41
       0.45740375 0.973629 0.777673 16.4243
000120 d4 24 47 3f 7b 75 04 3f dc bb 83 41 19 71 85 3f
       0.7779057 0.5174176 16.466728 1.042514
000130 d2 01 0e 3f 52 c9 81 3f d8 5b 17 40 2c e2 5b 3e
       0.5547153 1.0139563 2.3649807 0.21472996
000140 8f 03 df 3e 5e db 3b 40 fd 1b 2b 40 f7 65 3d 41
       0.43557402 2.935264 2.6735833 11.837394
000150 43 a1 11 40 89 1b db 3f 3d a6 9d 3e 3d da 7a 41
       2.2754676 1.7117778 0.30790892 15.678281
000160 a1 af 22 41 cf 36 04 40 9e bb 5d 3e d7 d0 2d 3f
       10.167878 2.0658453 0.21653602 0.6789679
000170 16 37 40 3f e0 2f 7e 41 a8 86 f5 3e b7 49 2a 3f
       0.75084054 15.886688 0.47954297 0.6651873

weight f4 [10, 18816]
000000 eb f0 fa bd 35 35 2a 3f cd 52 e9 3e 26 f7 05 3f
       -0.12252983 0.6648744 0.45570984 0.52330244
000010 f7 ef 47 bf fd ae a0 be 6e 60 06 bf 64 a2 90 be
       -0.7810053 -0.31383505 -0.5249089 -0.28248894
000020 53 43 6a be f0 d0 95 bf 3e bd 6b bf d3 29 a2 bf
       -0.22877245 -1.1704388 -0.92085636 -1.2669014
000030 94 61 92 bf b2 fc d3 bf f8 96 86 3e 1e 0c 58 3e
       -1.1436028 -1.6561491 0.26287055 0.21098372
000040 3e 01 04 3f 28 ee 15 bf 34 ed 1e 3f f2 74 83 be
       0.51564395 -0.5856652 0.62080693 -0.2567516
000050 05 5d fc be 9b c4 b1 be ee 7c 8d 3e 9b f8 19 3e
       -0.49289718 -0.3472031 0.27634376 0.15036242
000060 2d f2 85 bf ac f2 eb 3e 43 04 7e 3c 7a 70 7a bd
       -1.0464531 0.4608358 0.015503946 -0.061142422
000070 c5 03 55 bd 8b 9c a6 3e af 3a b7 3e 60 c5 aa 3e
       -0.052005548 0.32541308 0.3578696 0.3335371
000080 71 9a df 3d c6 f3 47 bd 4c 1f 2b bf 81 bf ff bd
       0.10918129 -0.048816465 -0.6684463 -0.12487698
000090 20 37 09 be a0 f5 42 bf 35 0e 6e be f8 ae f8 be
       -0.13399935 -0.76156044 -0.23247607 -0.4857099
0000a0 12 5d c3 be c3 43 05 be 30 4d 6d 3f fd 32 d9 3e
       -0.38156945 -0.1301413 0.92695904 0.42421713
0000b0 24 91 d0 3c fe 93 21 3e 3e 39 79 3e f6 8a 3e be
       0.025459833 0.15779111 0.24338242 -0.18607697
0000c0 7c 26 81 be 9c a5 0a bf e8 9a 51 be 5c 33 13 bf
       -0.25224674 -0.5415895 -0.20469248 -0.57500243
0000d0 a8 ab 5c bf 7b 14 3d bf 57 04 27 bf 96 01 82 bf
       -0.86199427 -0.73859376 -0.65241 -1.0156734
0000e0 38 dc 34 3d d9 6a fc 3e 6e 0e f7 bc 29 ef 93 3e
       0.04415533 0.49300268 -0.030158248 0.28893402
0000f0 1e ff 09 bf a7 5b e1 3e 75 29 87 be 0a 63 29 bf
       -0.539049 0.44015238 -0.26398817 -0.66166747
000100 18 d5 17 bf 76 f8 57 bf ce 98 e2 be 74 3f 32 bf
       -0.5930953 -0.84363496 -0.44257206 -0.6962807
000110 5f bc 97 bf e5 af 8d bf 31 2a 5e bd bf 17 98 3e
       -1.1854361 -1.1069304 -0.054239456 0.29705617
000120 c1 e6 cb 3e 9e 4b 27 be 51 09 21 bc 69 e7 1d 3d
       0.3982449 -0.1633744 -0.009828881 0.038550768
000130 12 a2 d1 be d7 6e 9e be 9f e8 ee be ba d8 72 bf
       -0.40943962 -0.3094394 -0.4666185 -0.9486195
000140 57 e3 a8 be 5a 9c 12 bf 97 dd c2 be 33 3c 80 bf
       -0.32985947 -0.57269824 -0.38059685 -1.0018371
000150 7e c5 13 bf 26 d9 ef bd fe 25 87 bd 55 55 c0 bc
       -0.57723224 -0.1171134 -0.06599043 -0.02347819
000160 75 87 df 3d 7f b4 65 be d8 7d 85 bd a7 83 61 be
       0.10914508 -0.22432135 -0.065181434 -0.22022878
000170 cf 3a a9 be 7b ad 5a bf e9 3c c7 be fb a0 98 be
       -0.3305268 -0.8542096 -0.38913658 -0.29810318
000180 85 47 14 bf 4b 0d 9e bf a1 18 f0 bd eb 0e 1e bf
       -0.5792163 -1.2347807 -0.117234476 -0.61741513
000190 1b ec c3 3e c7 43 b9 be 86 69 b5 be 1e 64 a9 3d
       0.38266072 -0.36184523 -0.3543207 0.08271049
0001a0 63 fa 42 bd 67 5a 01 be fa 0c c1 be 1c 42 24 bf
       -0.04760207 -0.12632142 -0.37705213 -0.64163375
0001b0 73 3b 12 bf 59 c1 6e bf df b4 31 bf c9 b0 d8 be
       -0.5712196 -0.93263775 -0.6941661 -0.42322376
0001c0 35 d3 94 3e 59 05 89 bd 78 68 4c 3d e0 fb aa be
       0.29067388 -0.06690473 0.049904317 -0.3339529
0001d0 75 30 4a 3e e8 b6 e5 be 58 6c 26 bf 4a ee 85 3e
       0.19745047 -0.4486611 -0.6500907 0.26158363
0001e0 f1 29 99 be 13 83 48 3e dd 08 57 bf 68 60 c6 be
       -0.2991481 0.19581251 -0.839979 -0.38745427
0001f0 2d 06 11 bf 6c 19 0c bf 7f e6 19 3e 5e f6 3d be
       -0.5665005 -0.5472629 0.15029334 -0.18551013
000200 53 a9 45 be 05 bf 8c bd ed e9 e6 bd 37 e1 5b bd
       -0.19302873 -0.068723716 -0.112750866 -0.05368158
000210 73 79 c5 be b4 60 5d be 64 ac a7 bd 46 54 22 bf
       -0.3856922 -0.2161892 -0.08187178 -0.6340984
000220 85 c8 03 3d 31 19 25 bf 40 28 1d be 04 d5 6e bf
       0.032173652 -0.64491564 -0.15347385 -0.93293786
000230 63 5a da bd 01 20 4b be f0 f6 ff bd c8 31 b2 bd
       -0.10661771 -0.19836427 -0.124982715 -0.08700901
000240 d7 67 f2 3d be 97 8d 3d 42 2d 04 be 55 fa 58 ba
       0.11836212 0.06913708 -0.1290789 -0.00082770485
000250 b0 3c 0d bf 69 54 af be fb a8 0f bf b7 be 02 bf
       -0.55170727 -0.34244087 -0.5611722 -0.5107226
000260 71 67 0d be 0b b2 30 bf 11 b4 be 3d 65 22 86 bd
       -0.13808991 -0.6902167 0.09311689 -0.06549529
000270 80 7b e3 bd d1 ab bc bd bd 37 97 be 5a 7a 41 be
       -0.1110754 -0.09212459 -0.29534712 -0.1889433
000280 19 54 cc be ed c1 eb be 72 37 ed be a3 72 04 be
       -0.3990791 -0.4604639 -0.46331364 -0.12934355
000290 a5 89 f8 be b9 83 46 bb 7b 96 b1 be aa db b8 be
       -0.48542514 -0.0030290915 -0.3468512 -0.3610509
0002a0 55 7b 14 bf d9 f1 61 3c f9 d9 a8 be 4f 6f b5 3e
       -0.5800069 0.013790571 -0.329788 0.35436484
0002b0 1c f8 3a 3e 80 8b 01 be a9 6e 18 bf b1 6e 35 be
       0.18258709 -0.12650871 -0.59543854 -0.17718007
0002c0 11 ac 7e be 0a 4d f2 bc 30 9a a4 3c f8 28 e5 3c
       -0.24870326 -0.02957775 0.020093054 0.027973637
0002d0 67 53 9b 3c 5e 7d 48 be 75 d5 e6 bd c7 8e fa be
       0.018960668 -0.19579074 -0.112711824 -0.48937055
0002e0 cf 4e ea 3d e7 46 eb bc 16 46 e7 3e e6 c2 92 3e
       0.11440813 -0.028720332 0.4517066 0.2866432
0002f0 b5 02 04 3e 6b c8 01 bf 82 10 71 3e ef 32 e9 be
       0.12891658 -0.5069644 0.23541453 -0.45546672
000300 b3 42 3c 3f b6 32 95 be 74 d5 05 3e 5f 61 f7 be
       0.73539275 -0.29140252 0.13069707 -0.48316476
000310 45 14 4d bf 9d e1 34 bf e8 db 28 bf 6c e7 8a bf
       -0.80109054 -0.7065676 -0.6596055 -1.0851874
000320 ea 96 90 bf be a7 6b be 72 3e 20 be e2 10 db be
       -1.1296055 -0.23013207 -0.15648821 -0.42786318
000330 95 0c 52 bf 98 76 c5 be 60 2b 01 bf 0e 04 03 bf
       -0.8205045 -0.38567042 -0.5045681 -0.5117806
000340 6f 28 6f bf 29 8a 32 3e f6 e9 3b 3e c4 41 99 bf
       -0.9342107 0.17435516 0.18350968 -1.1973195
000350 25 e5 23 be 0c 98 26 bf 64 cb 4b bf 87 1e 1c 3e
       -0.1600538 -0.65075755 -0.79607224 0.1524602
000360 6f 43 2a 3d cf 2b 3e 3e 54 d4 ba be 1f 16 c1 be
       0.041568216 0.18571399 -0.36490119 -0.3771219
000370 a3 2c bc 3d 2a 00 3c 3e f9 af 6c be be ef 62 bf
       0.09188201 0.18359438 -0.23114003 -0.8864707
000380 b1 1c f8 be 71 b1 25 bf 37 4a 87 bf 4c 4f c6 be
       -0.4845939 -0.6472388 -1.0569524 -0.38732374
000390 c8 83 97 be 5e 1e 9b 3e d2 bd 2e be 2b 3f 79 3d
       -0.2959273 0.30296606 -0.17064598 0.060851257
0003a0 1a ce 95 3e 71 ad 83 be ca 64 07 be bd dc e8 be
       0.29258806 -0.25718263 -0.13222042 -0.4548091
0003b0 b5 38 27 bf b0 1d 1a bf 3a f7 1d bf 39 d8 9c be
       -0.65320903 -0.6020155 -0.6170536 -0.30633715
0003c0 25 48 5d be 6d 57 8d be e5 1d 0a be ef c3 ad 3d
       -0.21609552 -0.27605763 -0.13487966 0.08484637
0003d0 f4 5e 1b be db 63 ca 3e 68 a9 ce 3e 96 f7 a5 3d
       -0.1517294 0.3952931 0.40363622 0.08103864
0003e0 54 96 a8 be 85 8e 14 bf 86 6d 6f 3e 64 ae b7 be
       -0.3292719 -0.5802997 0.23381624 -0.35875237
0003f0 95 78 4e be 31 c1 94 be ce 5c 4a be 7f e9 8f 3e
       -0.20163186 -0.29053643 -0.19761965 0.2810783

bias f4 [10]
000000 1d 7f d5 c0 dd 18 e6 c1 3a e6 c6 41 60 b1 60 42
       -6.6717668 -28.76214 24.862415 56.173218
000010 87 ba 22 42 0d 2e 1b 41 67 53 b5 c1 ed 25 c2 c0
       40.682156 9.698743 -22.665724 -6.0671296
000020 9c 28 44 c2 ea d5 91 c1
       -49.039658 -18.22945
